Learning PyTorch/models/04. Pytorch FashionMNIST Model.pth (torch, 35637 bytes, 10 tensors)

conv_1.0.weight f4 [10, 1, 3, 3]
0	0x3fa1e0d4	1.2646737
1	0x3f283b3d	0.6571539
2	0xbdd15975	-0.10222141
3	0x3e3ca376	0.1842173
4	0xbf0ad41f	-0.5422992
5	0xbfb0ff43	-1.38279
6	0xbe0f34d4	-0.13984996
7	0x3f159f84	0.58446527
8	0xbeedeabd	-0.46468154
9	0x3cc9ed6f	0.02464935
10	0x3f594f11	0.8488627
11	0xbf4f8bb2	-0.81072533
12	0x3f026e08	0.50949144
13	0x3f2a546c	0.6653507
14	0xbf46b1a7	-0.77614826
15	0x3e7fbea2	0.24975064
16	0xbea2a880	-0.3176918
17	0xbe72a1b8	-0.23694503
18	0xbe7f695f	-0.2494254
19	0xbf3b516e	-0.73171127
20	0xbf837b85	-1.027207
21	0xbe86ed89	-0.263531
22	0xbe807c21	-0.25094703
23	0x3f2d0e55	0.67599994
24	0xbd0c40a3	-0.03424133
25	0xbe2f6388	-0.17127812
26	0x3d2bb2bf	0.041918512
27	0xbe85115a	-0.259898
28	0x3ed48d2b	0.41513953
29	0x3ea3d2f0	0.3199687
30	0xbd121cf7	-0.035672154
31	0xbeb20280	-0.34767532
32	0x3e5ef844	0.21774393
33	0x3d2b7e43	0.04186846
34	0xbdcf702d	-0.10128818
35	0xbecc77f6	-0.39935273
36	0xbeabca76	-0.33552903
37	0x3e95dd59	0.29270437
38	0xbda4789c	-0.08030817
39	0xbfe4be10	-1.7870502
40	0xbf89dd6e	-1.07707
41	0x3efaf876	0.49017686
42	0xbfe55b27	-1.7918442
43	0xbe751b1e	-0.23936126
44	0x3e92e8f1	0.28693345
45	0xbe9690b1	-0.29407266
46	0xbe158018	-0.14599645
47	0xbd9c7f3e	-0.07641457
48	0xbd4dd75a	-0.050254203
49	0xbdc5ba75	-0.096547045
50	0xbe33832a	-0.17530504
51	0xbe9d8372	-0.30764347
52	0x3e6d1ddc	0.23155922
53	0x3d6f5c2a	0.058437504
54	0x3e365569	0.17806019
55	0x3de42ae2	0.11140992
56	0xbf034986	-0.5128406
57	0x3e1c97b4	0.15292245
58	0xbd7b591c	-0.06136428
59	0xbe32f5ab	-0.17476527
60	0xbeb1d9e5	-0.34736553
61	0xbf231272	-0.6370002
62	0xbe17a72c	-0.14809865
63	0x3f07881a	0.5294205
64	0x3e1a4ce9	0.15068401
65	0x3f317af6	0.6932825
66	0x3ed54413	0.416535
67	0xbf92117c	-1.1411586
68	0x3d5bf962	0.053704627
69	0xbf8e417c	-1.1113734
70	0xc009aca6	-2.1511626
71	0xbea22383	-0.31667718
72	0xbee24f04	-0.4420091
73	0xbf110e11	-0.5666209
74	0x3eafd76a	0.34344035
75	0xbf26c5e7	-0.65145725
76	0xbec61b4f	-0.3869271
77	0xbe71168e	-0.2354376
78	0x3f03a2d2	0.5142032
79	0x3ca6b253	0.020348703
80	0x3d30a86b	0.043129366
81	0x3ecfa47a	0.40555173
82	0xbe430281	-0.19043924
83	0x3e0d3467	0.13789521
84	0x3eb18a06	0.34675616
85	0xbd199cf2	-0.03750319
86	0xbf14b7f0	-0.58093166
87	0x3dcd6d82	0.100306526
88	0x3edcf5ff	0.4315643
89	0xbe77e7f9	-0.24209584

conv_1.0.bias f4 [10]
0	0xbf02ab03	-0.51042193
1	0x3dae2bcf	0.085044496
2	0x3e988e53	0.29796085
3	0xbe4abe8b	-0.19799249
4	0x3eb0f187	0.3455927
5	0xbe7fa4a4	-0.24965149
6	0x3e36e8d6	0.17862257
7	0x3e81e085	0.25366607
8	0x3dafb284	0.08578971
9	0xbddd328d	-0.108006574

conv_1.2.weight f4 [10, 10, 3, 3]
0	0xbe804fdf	-0.25060937
1	0x3e96a5a4	0.2942325
2	0x3d66f442	0.056385286
3	0x3d73f11c	0.05955611
4	0xb8ea2a20	-0.00011165836
5	0xbdf1ea0c	-0.11812219
6	0xbebf676a	-0.37383586
7	0xbe75a6b1	-0.23989369
8	0x3da13bda	0.07872744
9	0x3dc90a63	0.09816434
10	0x3da39558	0.079874694
11	0xbe2ff437	-0.17183004
12	0x3ef7eb56	0.48421735
13	0xbecb3ed8	-0.39696383
14	0xbe8cd2ce	-0.2750458
15	0x3f21f04f	0.63257307
16	0xbf2fb6cd	-0.68638307
17	0x3d5e85ca	0.05432681
18	0xbd8e7e99	-0.0695774
19	0xbebb8c95	-0.36630693
20	0xbe7e8e46	-0.2485896
21	0x3d854a90	0.06508362
22	0xbd8d843b	-0.069099866
23	0x3e3b4f23	0.18291907
24	0x3e7f2845	0.24917705
25	0x3e3a0233	0.18164901
26	0x3e95ef0c	0.2928394
27	0xbe2be927	-0.1678816
28	0xbe30f0fc	-0.17279428
29	0xbdfae264	-0.12250212
30	0xbd8c3674	-0.068463236
31	0x3c4e0a8e	0.012575759
32	0x3d1c3770	0.038138807
33	0xbbf9503d	-0.007608442
34	0xbd6d8fdb	-0.05799852
35	0x3d9695bf	0.073527806
36	0xbe0cfb26	-0.1376768
37	0xbe1d2d5d	-0.15349336
38	0xbe85f225	-0.26161304
39	0xbe955351	-0.29165128
40	0xbd13a31b	-0.03604422
41	0x3f23b14b	0.639424
42	0x3c8eb893	0.017421996
43	0x3d2b9eda	0.04189954
44	0x3ec25aeb	0.3795999
45	0xbcdd2f77	-0.027000172
46	0xbcdc225c	-0.026871853
47	0xbba5d88d	-0.0050612153
48	0xbdcd497a	-0.1002378
49	0xbd8f1ffe	-0.06988524
50	0xbd8feba6	-0.07027368
51	0x3d591643	0.052999746
52	0x3c6d2796	0.01447477
53	0x3da791bd	0.08182094
54	0xbd4f1910	-0.05056101
55	0x3e4770d9	0.19476642
56	0xbe109f3c	-0.14123243
57	0x3e80e4a8	0.2517445
58	0x3dbd6ce9	0.092492886
59	0xbe339854	-0.17538577
60	0x3e6d6950	0.23184705
61	0xbe0667bf	-0.13125513
62	0xbe679c4f	-0.22618221
63	0xbe9d55fa	-0.30729657
64	0x3efedb6a	0.49776775
65	0xbc9091ec	-0.017647706
66	0x3e9281a7	0.28614542
67	0x3ef1e8cf	0.4724793
68	0xbeead953	-0.4586893
69	0x3ecc4048	0.39892793
70	0xbddf219b	-0.108950816
71	0xbe1e3d40	-0.15453053
72	0x3dc33036	0.0953068
73	0x3e036d8d	0.12834759
74	0x3bc4483a	0.0059900554
75	0x3e1bedc0	0.15227413
76	0xbd08d233	-0.033403587
77	0xbe6e4254	-0.2326749
78	0xbd253c54	-0.040340737
79	0x3d5ac5f8	0.053411454
80	0x3de99c0e	0.11406718
81	0x3ddad7c6	0.10685687
82	0xbe3df2fe	-0.18549725
83	0x3e73ea4d	0.23819847
84	0x3f073c63	0.5282652
85	0xbeca9491	-0.39566472
86	0xbe80e340	-0.25173378
87	0x3eb9d76b	0.36297163
88	0x3d54a76f	0.05191749
89	0xbf05b647	-0.5223126
90	0xbde8cd65	-0.11367301
91	0xbe99c9f4	-0.3003689
92	0x3e478a77	0.19486414
93	0x3df48738	0.119398534
94	0xbdf33c1b	-0.118766986
95	0xbe9240b4	-0.2856499
96	0xbd575882	-0.052574642
97	0x3d3e10c3	0.046402704
98	0xbe554e35	-0.20830615
99	0x3ef851bd	0.4849986
100	0xbeb03557	-0.34415695
101	0xbdf1b2ab	-0.11801656
102	0xbd4eef5c	-0.05052124
103	0x3e494fe0	0.19659376
104	0x3e6b0479	0.22950925
105	0xbe9c61fe	-0.30543512
106	0xbbf36b28	-0.0074285455
107	0x3cefaacb	0.029256245
108	0x3ef0c4a4	0.47025025
109	0x3b583e8e	0.003299627
110	0xbd67eeb4	-0.05662413
111	0xbe8df39e	-0.27724928
112	0x3e6a54c1	0.22883894
113	0x3dad430e	0.08460055
114	0xbe91c3a9	-0.2846959
115	0xbe0570dd	-0.13031335
116	0x3d4a9d03	0.049466144
117	0xbd8eb6c2	-0.06968452
118	0xbc83fe85	-0.016112575
119	0x3de31b27	0.11089163
120	0xbe0509b2	-0.1299198
121	0x3cdddb26	0.027082037
122	0x3cdf1c53	0.027235186
123	0xbca41abd	-0.020032281
124	0xbdb248e4	-0.08705309
125	0xbdb1d673	-0.08683481
126	0xbeff28a6	-0.498357
127	0xbebc4b00	-0.3677597
128	0xbec3bfa9	-0.38232163
129	0xbeb1da08	-0.34736657
130	0xbe854a5c	-0.26033294
131	0xbe40312e	-0.1876876
132	0x3e81d18a	0.25355178
133	0xbd5c6f4e	-0.053817086
134	0xbe1e75b3	-0.15474586
135	0xbc5eb0fa	-0.013591999
136	0x3d6d7736	0.057975017
137	0x3d617a4d	0.055048276
138	0xbdc89fb3	-0.09796085
139	0x3dc62e40	0.0967679
140	0xbcd1e2d6	-0.02562086
141	0xbc3e8af7	-0.0116298115
142	0x3da585d9	0.0808217
143	0xbd94ee66	-0.072720334
144	0x3c005049	0.0078316415
145	0xbe87b45a	-0.26504785
146	0xbe589c81	-0.21153452
147	0xbc5799cd	-0.013159228
148	0xbcc3d9d3	-0.023907578
149	0x3d47b5ff	0.04875755
150	0x3e82a6d6	0.2551791
151	0x3db9e916	0.09077661
152	0x3dbae1e5	0.09125117
153	0xbeb7fa0c	-0.35932958
154	0xbed6dcdc	-0.41965377
155	0x3d94f897	0.07273977
156	0xbe4d8831	-0.20071484
157	0xbf006d3a	-0.50166667
158	0x3c9af5eb	0.018916091
159	0x3e02402f	0.12719797
160	0x3e11da64	0.14243466
161	0xbe6dc36f	-0.23219083
162	0xbe852210	-0.2600255
163	0xbd075e45	-0.033048887
164	0xbe3f242c	-0.18666142
165	0x3da95923	0.082689546
166	0xbe726c04	-0.23674017
167	0xbc660e9a	-0.014041567
168	0xbe069cad	-0.13145705
169	0xbd9288b2	-0.07154979
170	0x3e7db842	0.2477732
171	0xbe02b0a1	-0.12762691
172	0xbcb728f3	-0.022358393
173	0x3c9bd66a	0.019023139
174	0x3e14b0aa	0.14520517
175	0x3dd10d46	0.1020761
176	0xbcd01c2c	-0.025404058
177	0x3c76bd89	0.015059837
178	0x3e05c93b	0.13065045
179	0xbbe7d1df	-0.007074579
180	0xbeaccf26	-0.33751792
181	0xbec4b1f8	-0.3841703
182	0xbe8a5cf0	-0.2702403
183	0xbbd1a15d	-0.00639741
184	0xbdb1f66e	-0.08689581
185	0x3ad9ecd7	0.001662637
186	0x3db4a0e3	0.08819749
187	0xbd84f78f	-0.064925306
188	0x3bf71523	0.0075403615
189	0xbdb5ae07	-0.08871084
190	0xbe01da4d	-0.12680931
191	0xbe19bbbd	-0.15013023
192	0x3dc2daa6	0.0951436
193	0xbdb60270	-0.08887184
194	0xbe8e5e6f	-0.27806422
195	0xbda4e27b	-0.0805101
196	0x3d867172	0.06564607
197	0x3ca89503	0.020578867
198	0xbdacc590	-0.084361196
199	0xbd6de281	-0.05807734
200	0xbe8dff79	-0.27733973
201	0x3d0190a9	0.0316321
202	0x3e5e1dd3	0.21691065
203	0x3e836fe0	0.2567129
204	0x3eeca6cc	0.46221006
205	0x3ea0535a	0.31313592
206	0xbc999160	-0.018746078
207	0x3d361d54	0.044461563
208	0x3d1e5416	0.03865441
209	0xbbf3c655	-0.0074394145
210	0x3d5cd05a	0.053909637
211	0x3e1bea17	0.15226017
212	0xbbc36fc0	-0.0059642494
213	0x3d3ae5f8	0.04562947
214	0x3bf55115	0.0074864724
215	0xbda2047e	-0.07911013
216	0x3bd3d1bd	0.0064642117
217	0x3de32271	0.110905536
218	0x3eaa6f7f	0.3328819
219	0xbd0f00d3	-0.034912895
220	0x3e156bf1	0.14591958
221	0xbd1fbbcd	-0.03899746
222	0xbea7fd0b	-0.32810244
223	0xbea50936	-0.3223359
224	0xbde50be9	-0.11183912
225	0x3c21873a	0.009858901
226	0xbca9a1ac	-0.020706974
227	0x3da8858d	0.08228598
228	0xbd33f5c4	-0.043935552
229	0x3db7d4fa	0.08976169
230	0xbb135965	-0.0022483703
231	0x3d93ea96	0.07222478
232	0x3d89b781	0.06724454
233	0xbd3c4e12	-0.04597289
234	0x3dd9f61e	0.10642646
235	0x3e2db7e9	0.16964687
236	0x3c55cde0	0.013049573
237	0x3d2265ea	0.039647974
238	0xbca6fc70	-0.020384043
239	0xbe2b7ba1	-0.1674638
240	0xbdbb60bd	-0.09149311
241	0x3dc2d7c5	0.09513811
242	0x3d3fc2bb	0.04681657
243	0x3e68921c	0.22711986
244	0x3ebc92ed	0.36830845
245	0x3e9217a9	0.28533676
246	0xbd055d96	-0.032559954
247	0xbe37ed7a	-0.17961684
248	0xbd8bab2f	-0.0681976
249	0xbedd1f2f	-0.43187854
250	0xbe8938b2	-0.26801068
251	0xbd67f0de	-0.056626193
252	0xbbef3936	-0.0073005212
253	0x3d013773	0.03154702
254	0x3d9f1c3e	0.07769059
255	0xbda84f32	-0.0821823

conv_1.2.bias f4 [10]
0	0xbe401d39	-0.18761148
1	0x3f054f85	0.5207446
2	0x3e1d20ed	0.15344591
3	0xbe8cceae	-0.27501434
4	0x3ecc0e9f	0.39854905
5	0xbc785b6f	-0.015158518
6	0xbc18c1ff	-0.009323596
7	0x3d2a9fb6	0.04165622
8	0x3ceb03ce	0.028688338
9	0xbe198179	-0.14990796

conv_2.0.weight f4 [10, 10, 3, 3]
0	0xbd44f026	-0.048080586
1	0xbf2a296c	-0.66469455
2	0xbe9bf391	-0.30459264
3	0x3e29d11d	0.16583677
4	0x3d909b09	0.070608206
5	0xbe79bfca	-0.24389568
6	0x3e3feda5	0.18742998
7	0x3e395640	0.18099308
8	0x3ecf751f	0.40519044
9	0x3c7ede4a	0.0155559275
10	0x3e23d1d7	0.15998016
11	0x3ee20b36	0.44149178
12	0xbe89d147	-0.26917478
13	0xbe135444	-0.14387614
14	0xbc222ff6	-0.00989913
15	0x3e002b2c	0.12516469
16	0xbd197dd8	-0.03747353
17	0xbe46513f	-0.1936693
18	0xbcd2ee79	-0.025748478
19	0xbe8fe768	-0.28106236
20	0xbd747428	-0.059681088
21	0x3d577fd0	0.052612126
22	0x3e5c60ec	0.21521348
23	0x3e084a43	0.13309579
24	0xbda6a36c	-0.08136639
25	0x3e569c7e	0.20958135
26	0x3cf39b5a	0.029737163
27	0x3e8b6f84	0.27233517
28	0x3e1798ed	0.1480443
29	0xbe2dcaf4	-0.16971952
30	0x3dbf485c	0.09339973
31	0x3ec011ac	0.37513483
32	0x3ecc8b9b	0.3995026
33	0xbe09dfc2	-0.13464263
34	0xbe898a42	-0.26863295
35	0x3de4676b	0.11152538
36	0xbde425ac	-0.11139998
37	0xbe36f5a8	-0.17867148
38	0xbe54c93f	-0.20779894
39	0x3e1b42a3	0.15162139
40	0xbce53722	-0.027980391
41	0x3e9b1944	0.30292714
42	0x3c4569fe	0.012049196
43	0x3ebe9971	0.37226442
44	0x3f163313	0.58671683
45	0x3d63720b	0.05552868
46	0x3de61a38	0.112354696
47	0xbe17b564	-0.14815289
48	0x3d543c35	0.05181523
49	0xbe945392	-0.2897001
50	0x3d1649a0	0.036691308
51	0x3ecddd96	0.4020812
52	0x3e003515	0.12520249
53	0x3e052393	0.13001852
54	0xbd2b7e34	-0.041868404
55	0x3d4a957b	0.049458962
56	0x3d9417a9	0.07231075
57	0x3d60f7c5	0.05492379
58	0xbce72796	-0.028217118
59	0x3d63ac22	0.05558408
60	0x3d9c99d0	0.07646525
61	0xbde393d3	-0.111121796
62	0xbd27e32f	-0.040988144
63	0xbdce7b95	-0.10082165
64	0xbe55c8dd	-0.20877405
65	0x3dbcb259	0.092137046
66	0x3e322211	0.17395808
67	0xbe6a05bc	-0.2285375
68	0x3e4aca7b	0.19803803
69	0x3e0b8073	0.13623218
70	0xbe41a32b	-0.189099
71	0x3c2da788	0.010599025
72	0xbd9c3233	-0.07626762
73	0x3d9960d1	0.074891694
74	0x3e152328	0.14564192
75	0x3ba4f138	0.0050336383
76	0x3ca92cb6	0.020651203
77	0x3c9b5553	0.018961584
78	0xbd38b755	-0.045096714
79	0x3d9ab4dd	0.07554028
80	0x3ca1de34	0.019759275
81	0x3e10deb8	0.1414746
82	0xbe52e670	-0.20595717
83	0x3d0d1039	0.0344393
84	0x3d99fa4a	0.07518442
85	0x3b0a9bcb	0.0021149989
86	0xbdc6029b	-0.09668466
87	0x3d83c371	0.06433762
88	0xbd335b6c	-0.04378836
89	0x3d7bab92	0.06144292
90	0x3df02b29	0.11726982
91	0x3dced861	0.10099865
92	0xbec6ece9	-0.38852623
93	0x3ebc5ec9	0.36791065
94	0x3e61b28c	0.22040766
95	0xbe8ff7d8	-0.28118777
96	0xbf1229d9	-0.57095104
97	0x3e66f012	0.22552517
98	0x3e80bd7c	0.25144565
99	0x3dedac56	0.11605136
100	0xbdc1745e	-0.094460234
101	0x3ebe6c8b	0.37192187
102	0xbe4f1014	-0.20220977
103	0xbe385a8b	-0.1800329
104	0x3ed12ea6	0.40855902
105	0xbe8b3a76	-0.2719304
106	0xbf3de7c4	-0.7418177
107	0xbede1ec3	-0.43382844
108	0xbe085512	-0.13313702
109	0xbde82ccb	-0.113366686
110	0x3dcbfcbb	0.09960314
111	0x3de611b3	0.112338446
112	0xbd0cdd30	-0.03439063
113	0xbd67b1ef	-0.056566175
114	0xbe2d8bdc	-0.16947883
115	0x3d849235	0.06473199
116	0x3c303424	0.010754619
117	0xbe2877c3	-0.16451935
118	0xbe44c965	-0.19217451
119	0xbed1c098	-0.4096725
120	0xbce20d1c	-0.027594142
121	0x3e579fbc	0.21057028
122	0x3e56e95a	0.20987454
123	0xbeb4fc44	-0.35348713
124	0xbe7046a4	-0.23464447
125	0xbd46fbfb	-0.04858015
126	0x3e7fd831	0.24984814
127	0x3eb7a1a4	0.3586551
128	0x3e7ec357	0.24879204
129	0x3d658c3e	0.05604195
130	0x3ed0278f	0.4065518
131	0xbe1c3a3e	-0.15256593
132	0xbeeb7b7c	-0.4599265
133	0xbf4a1057	-0.7893118
134	0xbd80ea00	-0.06294632
135	0x3e880f3b	0.2657412
136	0x3e8e12df	0.27748773
137	0x3d251591	0.04030377
138	0x3d9bf1dd	0.07614491
139	0x3d96a7b5	0.07356206
140	0x3e3fc78e	0.18728468
141	0xbe976119	-0.29566267
142	0xbf08999e	-0.533594
143	0x39b1f9e1	0.00033946245
144	0x3e039dc5	0.12853153
145	0xbdcf9289	-0.10135371
146	0xbd4119ec	-0.04714386
147	0xbc2a198d	-0.010382068
148	0xbd758266	-0.05993881
149	0x3d73c150	0.05951053
150	0x3d925aba	0.07146211
151	0x3c811637	0.015757663
152	0x3ce958fd	0.028484816
153	0x3e87caf0	0.26522017
154	0xbed60adb	-0.41805157
155	0xbd939982	-0.07207014
156	0xbe030b1f	-0.12797211
157	0xbed2ca74	-0.41170084
158	0x3e95619a	0.29176027
159	0xbe26852c	-0.16261739
160	0xbf03355d	-0.512533
161	0xbeac10a2	-0.3360644
162	0x3c33c6ef	0.010972722
163	0xbc603cf7	-0.01368641
164	0x3e3079de	0.17233989
165	0x3d80b2a9	0.06284077
166	0xbd7e528c	-0.06209044
167	0x3db6ffae	0.08935486
168	0x3cecded6	0.02891485
169	0x3ce95fc5	0.02848805
170	0xbce31b15	-0.027722875
171	0x3d3fd3b0	0.04683274
172	0xbde9ac65	-0.11409835
173	0x3d1e9ecd	0.038725663
174	0xbdfa76fb	-0.12229725
175	0xbe478df9	-0.19487752
176	0x3d1d4976	0.038400136
177	0xbe079cae	-0.13243362
178	0x3beebd46	0.0072857467
179	0xbcb401ed	-0.021973575
180	0xbeea4d5b	-0.45762143
181	0xbd134baf	-0.03596085
182	0x3f0655d3	0.5247471
183	0xbd9e8adb	-0.07741328
184	0xbe73f1ee	-0.23822758
185	0x3eaf9d8a	0.3429988
186	0xbd4107c7	-0.047126558
187	0xbe30ab5a	-0.17252865
188	0xbed7dba5	-0.42159763
189	0x3de85d86	0.11345963
190	0xbe09545a	-0.13411084
191	0xbf577772	-0.84166634
192	0x3f2d7c5e	0.67767894
193	0x3f3510e1	0.7072888
194	0xbca88f6f	-0.020576207
195	0xbe4641ff	-0.19361113
196	0xbe299639	-0.16561212
197	0xbc7f9a35	-0.015600731
198	0xbd49ba28	-0.049249798
199	0x3ec9cf93	0.3941618
200	0x3ed05338	0.4068849
201	0xbee43c58	-0.4457729
202	0xbe52ea6d	-0.20597239
203	0x3ebd4089	0.369633
204	0xbdc6b911	-0.09703267
205	0xbeb10be9	-0.345794
206	0xbda6b68e	-0.08140288
207	0xbe9560b8	-0.29175353
208	0xbe9046e8	-0.28179097
209	0x3e5df8fb	0.2167701
210	0x3c1bd337	0.009510807
211	0xbf1b8bf5	-0.6076043
212	0xbe36d14f	-0.17853282
213	0x3eb34f2d	0.35021344
214	0x3d3dfa74	0.04638143
215	0x3d4c6273	0.049898576
216	0x3cea1f71	0.028579446
217	0xbe26ef97	-0.16302334
218	0xbe405537	-0.18782507
219	0x3b7fc67d	0.003902822
220	0xbe39034b	-0.18067662
221	0x3db7984c	0.08964595
222	0x3dfd9bfb	0.123832665
223	0xbec882d1	-0.39162305
224	0xbebe1de4	-0.3713218
225	0xbe62092c	-0.22073811
226	0xbd662db9	-0.05619595
227	0xbebbc0e3	-0.36670598
228	0xbcc8cb11	-0.024510892
229	0x3d97ac6b	0.07405933
230	0x3bd87be1	0.0066065644
231	0xbd621334	-0.055194095
232	0x3ec1cd3c	0.37851894
233	0xbd29fb2d	-0.041499306
234	0x3da4b7a1	0.08042837
235	0xbddfdb0c	-0.10930452
236	0x3c2bfd6d	0.010497433
237	0x3d7dfc1e	0.062008016
238	0x3cc0f0af	0.023552267
239	0x3dd098df	0.10185408
240	0xbd0f2f93	-0.03495748
241	0xbd8b3276	-0.06796734
242	0xbcc67752	-0.024226818
243	0xbe4f2028	-0.2022711
244	0x3e34f811	0.17672755
245	0xbeccf3bf	-0.40029714
246	0x3edfadb2	0.43687207
247	0x3edd2894	0.4319502
248	0xbed829a6	-0.42219275
249	0xbe4fe55f	-0.20302342
250	0x3ce8ec1f	0.028432904
251	0xbe0abbd1	-0.13548209
252	0xbafc1f21	-0.0019235351
253	0xbd2b66d9	-0.04184613
254	0x3dc64c83	0.09682562
255	0x3c6e00a3	0.014526519

conv_2.0.bias f4 [10]
0	0xbe250fa4	-0.16119248
1	0x3dadb63f	0.08482026
2	0x3eb472a3	0.3524371
3	0x3eba6b1d	0.36409846
4	0x3f228146	0.63478506
5	0x3e1a44bc	0.15065283
6	0x3f367c44	0.71283364
7	0xbe23e4ba	-0.16005221
8	0x3e7ff955	0.24997456
9	0x3e44d867	0.19223176

conv_2.2.weight f4 [10, 10, 3, 3]
0	0xbd8a8666	-0.06763916
1	0x3e9c4988	0.3052485
2	0xbe597bd2	-0.2123864
3	0x3e8b0a52	0.2715631
4	0x3e42f9cc	0.19040602
5	0xbe2a9d97	-0.16661678
6	0xbea87ab0	-0.32906103
7	0xbe42a89d	-0.19009633
8	0xbdb8faaf	-0.09032189
9	0xbdef530a	-0.1168576
10	0x3cdc15b6	0.026865821
11	0xbe5285ca	-0.20558849
12	0xbec59135	-0.38587347
13	0xbcdc0189	-0.0268562
14	0xbe301f90	-0.1719954
15	0xbe7a204d	-0.24426384
16	0x3f133b71	0.57512575
17	0xbe580663	-0.21096186
18	0x3e91315d	0.28357974
19	0xbef8d2fc	-0.48598468
20	0xbddc6d69	-0.10763056
21	0xbe09208c	-0.13391322
22	0x3d0fbf8e	0.03509479
23	0x3e724549	0.23659243
24	0x3e0fc1e1	0.14038803
25	0xbef0c90e	-0.47028393
26	0x3c2db744	0.010602776
27	0xbebb1d13	-0.3654562
28	0xbd44190c	-0.04787545
29	0xbf054ae0	-0.52067375
30	0x3ccdbf23	0.025115555
31	0xbc734aa8	-0.014849342
32	0xbec25659	-0.37956503
33	0xbdc13b20	-0.09435105
34	0xbdf6aa2e	-0.12044178
35	0xbe61f4d7	-0.22066055
36	0x3c47f8e8	0.01220534
37	0x3f0952b2	0.5364181
38	0x3d3d4ac9	0.0462139
39	0xbe4223eb	-0.18959014
40	0x3e2f91cc	0.17145461
41	0xbd2db935	-0.042412955
42	0x3e69f029	0.2284552
43	0x3d8627f3	0.065505885
44	0xbddd0786	-0.107924506
45	0xbd87ddc1	-0.06634093
46	0xbe741e5c	-0.23839706
47	0xbd3d58d4	-0.04622729
48	0xbd04db96	-0.032435976
49	0xbe84f728	-0.25969815
50	0x3e88275b	0.26592526
51	0x3dd04691	0.101697095
52	0xbe61353a	-0.2199296
53	0x3e95f5f6	0.29289216
54	0xbe180a67	-0.14847718
55	0xbe2eee1d	-0.1708302
56	0xbe4f61fe	-0.20252225
57	0xbe98582e	-0.29754776
58	0xbea0abc0	-0.31381035
59	0x3eba2d1e	0.36362547
60	0xbdcce8e4	-0.10005358
61	0xbe0080e9	-0.12549175
62	0x3e86c0ab	0.2631887
63	0xbeb040ca	-0.3442443
64	0xbe8b7400	-0.27236938
65	0x3daf3107	0.08554273
66	0x3be89ebf	0.007099002
67	0xbc595798	-0.013265513
68	0x3ee6913c	0.4503268
69	0xbda9ed37	-0.08297198
70	0x3e15747c	0.14595217
71	0x3e69845e	0.228044
72	0x3d1c0d4f	0.03809863
73	0xbea473f0	-0.32119703
74	0xbe0078db	-0.12546103
75	0xbcc464a2	-0.023973767
76	0xbe85c6ab	-0.26128134
77	0xbe9ce6a7	-0.30644724
78	0x3e164bad	0.14677306
79	0xbdeb428b	-0.114873014
80	0x3dbb31cf	0.091403596
81	0xbd51d0dc	-0.051224574
82	0x3d439328	0.04774776
83	0x3ea6ea0f	0.32600448
84	0xbe4ca0a4	-0.19983155
85	0x3e93b44a	0.28848487
86	0xbde764e0	-0.11298537
87	0x3e31d1fe	0.17365262
88	0x3d0b207f	0.033966538
89	0xbe3ace3b	-0.18242733
90	0xbe2d6001	-0.16931154
91	0xbef5331a	-0.4789055
92	0xbea24a03	-0.3169709
93	0x3c048a65	0.008089636
94	0x3e2d15a0	0.1690278
95	0xbe439d66	-0.19103011
96	0x3e1824a2	0.14857724
97	0x3e436f2a	0.19085374
98	0x3dc37d82	0.09545423
99	0xbe3be6eb	-0.18349807
100	0xbda3d547	-0.07999664
101	0xbef23684	-0.47307217
102	0x3efb2b38	0.4905641
103	0x3d8ee837	0.06977885
104	0xbd018fc7	-0.031631257
105	0xbdcb51ad	-0.09927688
106	0xbd6a4147	-0.05719116
107	0xbc470169	-0.012146332
108	0xbe378f82	-0.17925838
109	0x3e22c8d3	0.15896921
110	0x3e97b0f0	0.2962718
111	0xbf430ca7	-0.7619118
112	0x3dbcda7d	0.09221361
113	0xbe6c6450	-0.23085141
114	0x3de28405	0.11060337
115	0xbe8f0c73	-0.27939186
116	0xbe57b121	-0.21063663
117	0xbe5ce8ca	-0.21573177
118	0xbe5720d8	-0.21008623
119	0xbeed4f64	-0.46349633
120	0x3dd71f46	0.10504012
121	0x3ec618f3	0.3869091
122	0x3f017c2f	0.50580114
123	0xbe73eb17	-0.23820148
124	0xbe04e4ba	-0.12977877
125	0x3daa563b	0.083172284
126	0xbe87ca9f	-0.26521775
127	0xbc80fd58	-0.015745804
128	0x3ef85b9e	0.48507398
129	0xbe616b18	-0.2201351
130	0xbf0ec32d	-0.55766565
131	0xbec29a5c	-0.38008392
132	0x3e8c44d4	0.27396262
133	0x3d672280	0.056429386
134	0xbe5c2827	-0.21499692
135	0xbcb4c303	-0.022065645
136	0xbe6d739a	-0.2318863
137	0xbe965a38	-0.29365706
138	0x3e85328d	0.2601513
139	0xbde57a2f	-0.11204945
140	0xbdb1462c	-0.08655962
141	0x3e90b1a6	0.28260535
142	0x3d91fb79	0.07128043
143	0xbe3a20c1	-0.18176557
144	0xbe37031e	-0.17872283
145	0x3c5af99b	0.013365175
146	0xbda067d5	-0.078323044
147	0x3de1fdd5	0.11034743
148	0x3b49f6e6	0.003081733
149	0xbd21e793	-0.039527487
150	0x3d174992	0.036935396
151	0x3b78bc6d	0.0037954107
152	0x3e3f27d5	0.18667538
153	0xbd5f2bd2	-0.05448515
154	0xbd58c1bd	-0.05291914
155	0xbe14b97f	-0.14523886
156	0x3ddc3918	0.10753077
157	0x3d627e99	0.055296514
158	0xbe295ce9	-0.16539349
159	0x3da56727	0.080763154
160	0x3dbfc6a5	0.0936406
161	0xbe2aea3d	-0.16690917
162	0xbc0ffb09	-0.008787879
163	0xbd69dde9	-0.057096396
164	0xbc36af87	-0.011150247
165	0xbb80bc01	-0.003928662
166	0x3e389cea	0.18028608
167	0xbd7ecbbe	-0.062206022
168	0x3e23b641	0.15987493
169	0xbce6b7a7	-0.028163744
170	0x3d5d44da	0.05402074
171	0xbd7faf8d	-0.062423278
172	0xbe1ca25e	-0.15296313
173	0x3e1229f0	0.1427381
174	0xbd4bcc32	-0.049755283
175	0xbe142625	-0.14467676
176	0xbdacd39e	-0.084388
177	0x3e493c4f	0.19651912
178	0xbe098e9a	-0.13433304
179	0xbd89fcaa	-0.06737645
180	0xbe60604d	-0.21911736
181	0xbef3f75a	-0.47649652
182	0x3d9ba39d	0.07599566
183	0xbe57004e	-0.2099621
184	0xbedc0b34	-0.42977297
185	0x3b6798fe	0.0035338993
186	0x3dc64496	0.096810505
187	0xbe08282f	-0.13296579
188	0x3e45ba71	0.19309403
189	0xbe0422cb	-0.12903897
190	0xbdf05d4e	-0.117365465
191	0xbc2a7b61	-0.010405392
192	0x3e4e48c4	0.20144945
193	0xbde96829	-0.1139682
194	0x3ebd6121	0.36988166
195	0x3c7a6a81	0.015284182
196	0xbe8d9bdb	-0.2765797
197	0xbd0d5432	-0.034504123
198	0xbe9bf11a	-0.30457383
199	0x3cfce961	0.030873002
200	0xbe98a017	-0.2980964
201	0xbe246bcd	-0.16056748
202	0x3da5f51b	0.08103391
203	0xbe78fa75	-0.24314292
204	0xbd827d87	-0.06371599
205	0x3e4b71d1	0.19867636
206	0x3e07f58f	0.13277267
207	0x3e48b871	0.19601609
208	0xbdaebfd2	-0.085326806
209	0xbd6d2048	-0.057892114
210	0x3e89cd2f	0.26914355
211	0x3de5faf0	0.11229503
212	0xbe572f6e	-0.21014187
213	0xbde1ef84	-0.11032012
214	0x3e2023a7	0.156386
215	0xbd0a3b9e	-0.03374826
216	0xbe41e8c3	-0.18936448
217	0xbed51cb2	-0.41623455
218	0xbd75ded6	-0.060026966
219	0xbeb0ff30	-0.34569693
220	0xbead852d	-0.33890668
221	0xbe45bb7a	-0.19309798
222	0x3dbef455	0.093239464
223	0xbe5db539	-0.21651162
224	0xbde3974f	-0.11112844
225	0xbe677a9c	-0.22605366
226	0xbd90ebf0	-0.070762515
227	0xbe30a989	-0.17252173
228	0xbe9aa1cf	-0.30201575
229	0xbdac2fe7	-0.08407574
230	0x3c94aff8	0.018150315
231	0xbdf6e663	-0.120556615
232	0xbe49c70f	-0.19704841
233	0xbd71047b	-0.058842164
234	0xbee5d5b9	-0.4488962
235	0xbde9575c	-0.113936156
236	0xbe5972f1	-0.21235253
237	0xbeb97afd	-0.36226645
238	0x3df2f63c	0.11863372
239	0x3e3104e3	0.1728702
240	0xbea0e027	-0.31421015
241	0x3e8b90f6	0.27259034
242	0x3ec048a9	0.37555435
243	0xbdb80fb1	-0.08987368
244	0x3e1b2e4c	0.1515438
245	0xbe23ae91	-0.1598456
246	0xbd2b9b1a	-0.041895963
247	0x3c226447	0.009911603
248	0xbd9dc5b7	-0.07703727
249	0xbc95ded4	-0.01829473
250	0x3e03b09d	0.12860341
251	0xbd96fbb8	-0.0737223
252	0xbdc2c6b2	-0.095105544
253	0xbe03f68e	-0.12887022
254	0x3d31fd3f	0.043454405
255	0xbddd0163	-0.1079128

conv_2.2.bias f4 [10]
0	0xbe61dc70	-0.22056746
1	0xbd162727	-0.036658432
2	0x3ea92cd7	0.33042023
3	0xbf0c25e9	-0.54745346
4	0xbcfe5960	-0.031048477
5	0x3dbaceb1	0.091214545
6	0x3d133b3b	0.03594516
7	0x3e77864f	0.24172328
8	0xbe5aa162	-0.21350625
9	0xbebd0a9f	-0.36922166

classifier.1.weight f4 [10, 490]
0	0x3db5110c	0.08841142
1	0x3bb0c606	0.0053947
2	0xbde791ce	-0.11307107
3	0x3d498bec	0.049205706
4	0x3d811d62	0.063044325
5	0x3e7049f8	0.23465717
6	0x3ea1b783	0.3158532
7	0x3d514c16	0.05109795
8	0x3e7d5b83	0.2474194
9	0x3e29e117	0.16589771
10	0xbe2c2c00	-0.1681366
11	0x3dc16406	0.09442906
12	0xbd8430c2	-0.06454612
13	0x3d160661	0.036627177
14	0xbe328e87	-0.17437182
15	0xbd4aa840	-0.049476862
16	0xbe503f05	-0.2033654
17	0xbe13b72d	-0.14425345
18	0x3e427721	0.18990757
19	0x3d24c4aa	0.040226616
20	0xbe3c6c4d	-0.18400688
21	0xbe297168	-0.16547167
22	0xbdaa53a6	-0.08316736
23	0xbe43d607	-0.19124614
24	0x3e11b7c2	0.14230254
25	0x3c20a560	0.0098050535
26	0xbd90f52b	-0.07078012
27	0xbe9be8f8	-0.3045118
28	0xbdba2ead	-0.09090934
29	0xbd98ce69	-0.074612446
30	0x3cbfe423	0.023424214
31	0xbdd09e0d	-0.10186396
32	0xbe831fc7	-0.25610182
33	0xbdee8fb1	-0.11648501
34	0xbea16854	-0.3152491
35	0x3d606c12	0.054790564
36	0x3dfaf0f2	0.12252988
37	0xbe09ef06	-0.13470086
38	0xbd810593	-0.06299891
39	0x3d56dce7	0.052456763
40	0x3c863111	0.016380819
41	0xbb2390f2	-0.002495822
42	0xbe91f0a5	-0.2850391
43	0x3dffdb73	0.124930285
44	0x3d82bb98	0.06383437
45	0x3e273296	0.16327891
46	0xbd77b7b3	-0.060477924
47	0xbeaeb3f8	-0.3412168
48	0xbcadaec7	-0.021201504
49	0x3c925c4c	0.017866276
50	0xbd523fc1	-0.05133033
51	0x3e5d870b	0.21633546
52	0xbdb40d5c	-0.087916106
53	0x3d5819b8	0.052758902
54	0x3c701183	0.014652613
55	0x3cc3538e	0.023843553
56	0x3de38a8c	0.1111041
57	0xbda98a6c	-0.08278355
58	0x3d38254c	0.044957444
59	0x3dbd532b	0.09244379
60	0x3e4e2e05	0.20134743
61	0x3ec18093	0.37793407
62	0x3e2677ea	0.16256681
63	0x3e0d1da6	0.13780841
64	0x3e1593f6	0.14607224
65	0x3e24d777	0.16097818
66	0x3da001cc	0.07812843
67	0x3d9936d3	0.0748116
68	0x3e9a2dd9	0.30113104
69	0x3e5106a7	0.20412694
70	0x3dd0d457	0.101967506
71	0xbc80186a	-0.015636642
72	0xbd50283d	-0.050819624
73	0xbe42873d	-0.18996902
74	0xbdf6c5fc	-0.12049481
75	0xbc913ff6	-0.017730694
76	0x3dd648ff	0.10463142
77	0xbd22d039	-0.039749358
78	0xbe497282	-0.19672588
79	0xbda66697	-0.08125036
80	0x3d049bde	0.03237521
81	0xbe1deeb4	-0.1542309
82	0x3da48590	0.080332875
83	0x3e1a481f	0.15066575
84	0xbc62d200	-0.013844013
85	0xbc9666f4	-0.018359639
86	0x3d655db4	0.055997565
87	0x3db0c255	0.08630816
88	0x3d1d05ca	0.0383356
89	0xbda46572	-0.08027162
90	0x3e526a63	0.20548396
91	0xbe6ea2f9	-0.23304357
92	0x3b374275	0.0027963195
93	0x3ea1eaf1	0.3162456
94	0x3da67979	0.08128638
95	0xbea0c1c5	-0.31397834
96	0xbd5db851	-0.054130856
97	0xbe1d6b41	-0.15372945
98	0x3cf16209	0.029465692
99	0x3e0e2569	0.13881458
100	0x3db5cb15	0.088766254
101	0xbd6d02af	-0.057863887
102	0x3d00e413	0.03146751
103	0xbdab5227	-0.08365279
104	0x3c23334a	0.009960959
105	0x3e09f8d9	0.13473834
106	0x3dc530d1	0.096284516
107	0x3c8a4635	0.01687918
108	0xbe67bc3c	-0.226304
109	0xbd195ba2	-0.037440903
110	0x3e0c5212	0.13703182
111	0x3de9d1e2	0.11416985
112	0x3dba8162	0.09106709
113	0xbe330285	-0.1748143
114	0x3e3ac523	0.18239264
115	0xbec6eaa2	-0.38850886
116	0xbd84b443	-0.06479695
117	0xbe8cc86e	-0.27496666
118	0xbd01d12e	-0.03169363
119	0x3d6a6c02	0.05723191
120	0x3d89e332	0.06732787
121	0xbcbe825c	-0.02325552
122	0xbe004788	-0.12527287
123	0x3e0d022d	0.13770361
124	0xbc921a28	-0.017834738
125	0xbdb74b9b	-0.089499675
126	0x3bc79dda	0.0060918154
127	0x3d14c8b3	0.036324214
128	0x3e24dc29	0.1609961
129	0x3cd25e7b	0.025679817
130	0x3e0378cf	0.12839054
131	0x3d8b299f	0.06795048
132	0xbde85e0f	-0.11346065
133	0x3ddad24f	0.106846444
134	0x3d860398	0.06543654
135	0x3e39cdeb	0.18144958
136	0xbc0ec511	-0.0087139765
137	0xbe3f9b3d	-0.18711562
138	0x3dcf6b8d	0.101279356
139	0xbde19b10	-0.11015904
140	0xbe08d144	-0.13361079
141	0xbdb82cbb	-0.08992907
142	0xbe0f52e4	-0.13996464
143	0x3c9b1e1d	0.018935258
144	0xbdefdf57	-0.117125206
145	0x3e933924	0.28754532
146	0xbd5c973f	-0.053855177
147	0xbd9239eb	-0.07139953
148	0xbe838eaa	-0.25694782
149	0xbb0184bc	-0.0019762954
150	0xbd9cfc7b	-0.07665344
151	0xbc12347b	-0.008923645
152	0x3d2c0d38	0.042004794
153	0xbcf3a3c4	-0.029741175
154	0xbc099651	-0.008397655
155	0xbe110688	-0.14162648
156	0x3bd1f244	0.006407054
157	0x3ce287cf	0.02765265
158	0xbdb4e0d0	-0.08831942
159	0xbcf4599d	-0.029827887
160	0x3cb1f07b	0.021721115
161	0x3e993a66	0.29927367
162	0xbd9a380f	-0.075302236
163	0x3ca76f45	0.0204388
164	0x3db91697	0.09037512
165	0x3d5ed0be	0.05439829
166	0x3e62ddec	0.22154969
167	0x3d15eeb5	0.036604602
168	0x3e17c16a	0.14819875
169	0xbee0da9d	-0.4391679
170	0x3d74204b	0.05960111
171	0xbde1a679	-0.1101808
172	0x3ce795b4	0.028269626
173	0x3d3b6c14	0.04575737
174	0xbddb258a	-0.107005194
175	0x3e0119fc	0.12607569
176	0x3d52d1c0	0.051469564
177	0x3d97c621	0.07410837
178	0xbd9f8f44	-0.077909976
179	0x3e254b98	0.16142118
180	0x3ddd0bf8	0.107932985
181	0xbdcd8013	-0.10034194
182	0xbe461739	-0.19344796
183	0x3dc6e1a6	0.09711008
184	0x3e10463c	0.14089292
185	0xbe09becc	-0.1345169
186	0x3c970f80	0.018440008
187	0x3da2c214	0.07947174
188	0xbe6dcd75	-0.23222907
189	0xbeba1a6e	-0.3634829
190	0x3e5ab730	0.21358943
191	0xbe5014eb	-0.2032048
192	0xbe4e4535	-0.20143588
193	0x3e0bef9d	0.13665624
194	0x3e309a7d	0.17246433
195	0x3cc3d588	0.02390553
196	0x3d18630d	0.037203837
197	0x3d60b8c0	0.05486369
198	0xbdf1525f	-0.11783289
199	0x3ca4cf4a	0.020118374
200	0xbd1040c2	-0.035218008
201	0xbd00ea87	-0.031473663
202	0x3d7ec86f	0.062202867
203	0xbd88aaa0	-0.06673169
204	0xbbb71474	-0.005587155
205	0x3de97219	0.113987155
206	0x3e07997e	0.13242146
207	0x3da4bbd0	0.08043635
208	0x3c3e4e80	0.011615396
209	0xbd886b08	-0.066610396
210	0xbd1b6858	-0.037941307
211	0x3d319a40	0.043359995
212	0xbe9d8fe9	-0.30773857
213	0x3e387715	0.18014176
214	0x3dc95a69	0.098316975
215	0xbd1f03bb	-0.038821917
216	0x3b9fe5f3	0.004879707
217	0x3bc84fed	0.0061130435
218	0xbe251e58	-0.16124856
219	0xbe541d59	-0.2071432
220	0xbce06b31	-0.027394863
221	0xbe1be25d	-0.1522307
222	0xbd11a40c	-0.035556838
223	0xbbf50919	-0.007477891
224	0xbe03b2b1	-0.12861134
225	0x3c8c115f	0.017098127
226	0x3d0732a2	0.03300727
227	0x3d38560a	0.04500393
228	0xbe333425	-0.1750036
229	0xbd749d53	-0.05972035
230	0xbc887455	-0.016657034
231	0xbd8b4789	-0.068007536
232	0xbe2b03f1	-0.16700722
233	0x3e3c2a10	0.1837542
234	0x3e9157f4	0.28387415
235	0x3b8b725e	0.004255577
236	0xbc3f8ca5	-0.011691247
237	0xbb94e918	-0.0045443885
238	0x3d7584ac	0.05994098
239	0xbe13cbc4	-0.14433199
240	0x3dac3eda	0.084104255
241	0xbcf5edbf	-0.030020593
242	0x3da6f869	0.08152849
243	0x3e43a06e	0.19104168
244	0x3ce0e256	0.027451675
245	0xbbed1f9d	-0.0072364346
246	0x3e5fc788	0.21853459
247	0x3e1e67a7	0.15469228
248	0xbcc31e8e	-0.02381828
249	0xbe6413da	-0.22273198
250	0xbea332ba	-0.3187464
251	0x3e8406fd	0.25786582
252	0xbcc40653	-0.023928797
253	0x3bbbb643	0.0057285144
254	0x3dd67a40	0.10472536
255	0x3e589e9c	0.21154255

classifier.1.bias f4 [10]
0	0x3ec1870e	0.3779835
1	0xbdeeaa12	-0.11653532
2	0x3e01b78d	0.12667675
3	0x3dd6e807	0.104934745
4	0xbf17bbe7	-0.5927109
5	0x3e0a9d58	0.13536584
6	0xbd57cf96	-0.052688204
7	0x3e815415	0.25259462
8	0x3dff81bd	0.124759175
9	0xbeb5023a	-0.3535326
